Model: FasterRcnnMobileNetV3LargeFpn
Parameters: 18930229 ; Trainable: 18148893 (95.8725 [%])

FasterRcnnMobileNetV3LargeFpn(
  (_FasterRcnnMobileNetV3LargeFpn__model): FasterRCNN(
    (transform): GeneralizedRCNNTransform(
        Normalize(mean=[0.485, 0.456, 0.406], std=[0.229, 0.224, 0.225])
        Resize(min_size=(800,), max_size=1333, mode='bilinear')
    )
    (backbone): BackboneWithFPN(
      (body): IntermediateLayerGetter(
        (0): Conv2dNormActivation(
          (0): Conv2d(3, 16, kernel_size=(3, 3), stride=(2, 2), padding=(1, 1), bias=False)
          (1): FrozenBatchNorm2d(16, eps=1e-05)
          (2): Hardswish()
        )
        (1): InvertedResidual(
          (block): Sequential(
            (0): Conv2dNormActivation(
              (0): Conv2d(16, 16, kernel_size=(3, 3), stride=(1, 1), padding=(1, 1), groups=16, bias=False)
              (1): FrozenBatchNorm2d(16, eps=1e-05)
              (2): ReLU(inplace=True)
            )
            (1): Conv2dNormActivation(
              (0): Conv2d(16, 16, kernel_size=(1, 1), stride=(1, 1), bias=False)
              (1): FrozenBatchNorm2d(16, eps=1e-05)
            )
          )
        )
        (2): InvertedResidual(
          (block): Sequential(
            (0): Conv2dNormActivation(
              (0): Conv2d(16, 64, kernel_size=(1, 1), stride=(1, 1), bias=False)
              (1): FrozenBatchNorm2d(64, eps=1e-05)
              (2): ReLU(inplace=True)
            )
            (1): Conv2dNormActivation(
              (0): Conv2d(64, 64, kernel_size=(3, 3), stride=(2, 2), padding=(1, 1), groups=64, bias=False)
              (1): FrozenBatchNorm2d(64, eps=1e-05)
              (2): ReLU(inplace=True)
            )
            (2): Conv2dNormActivation(
              (0): Conv2d(64, 24, kernel_size=(1, 1), stride=(1, 1), bias=False)
              (1): FrozenBatchNorm2d(24, eps=1e-05)
            )
          )
        )
        (3): InvertedResidual(
          (block): Sequential(
            (0): Conv2dNormActivation(
              (0): Conv2d(24, 72, kernel_size=(1, 1), stride=(1, 1), bias=False)
              (1): FrozenBatchNorm2d(72, eps=1e-05)
              (2): ReLU(inplace=True)
            )
            (1): Conv2dNormActivation(
              (0): Conv2d(72, 72, kernel_size=(3, 3), stride=(1, 1), padding=(1, 1), groups=72, bias=False)
              (1): FrozenBatchNorm2d(72, eps=1e-05)
              (2): ReLU(inplace=True)
            )
            (2): Conv2dNormActivation(
              (0): Conv2d(72, 24, kernel_size=(1, 1), stride=(1, 1), bias=False)
              (1): FrozenBatchNorm2d(24, eps=1e-05)
            )
          )
        )
        (4): InvertedResidual(
          (block): Sequential(
            (0): Conv2dNormActivation(
              (0): Conv2d(24, 72, kernel_size=(1, 1), stride=(1, 1), bias=False)
              (1): FrozenBatchNorm2d(72, eps=1e-05)
              (2): ReLU(inplace=True)
            )
            (1): Conv2dNormActivation(
              (0): Conv2d(72, 72, kernel_size=(5, 5), stride=(2, 2), padding=(2, 2), groups=72, bias=False)
              (1): FrozenBatchNorm2d(72, eps=1e-05)
              (2): ReLU(inplace=True)
            )
            (2): SqueezeExcitation(
              (avgpool): AdaptiveAvgPool2d(output_size=1)
              (fc1): Conv2d(72, 24, kernel_size=(1, 1), stride=(1, 1))
              (fc2): Conv2d(24, 72, kernel_size=(1, 1), stride=(1, 1))
              (activation): ReLU()
              (scale_activation): Hardsigmoid()
            )
            (3): Conv2dNormActivation(
              (0): Conv2d(72, 40, kernel_size=(1, 1), stride=(1, 1), bias=False)
              (1): FrozenBatchNorm2d(40, eps=1e-05)
            )
          )
        )
        (5): InvertedResidual(
          (block): Sequential(
            (0): Conv2dNormActivation(
              (0): Conv2d(40, 120, kernel_size=(1, 1), stride=(1, 1), bias=False)
              (1): FrozenBatchNorm2d(120, eps=1e-05)
              (2): ReLU(inplace=True)
            )
            (1): Conv2dNormActivation(
              (0): Conv2d(120, 120, kernel_size=(5, 5), stride=(1, 1), padding=(2, 2), groups=120, bias=False)
              (1): FrozenBatchNorm2d(120, eps=1e-05)
              (2): ReLU(inplace=True)
            )
            (2): SqueezeExcitation(
              (avgpool): AdaptiveAvgPool2d(output_size=1)
              (fc1): Conv2d(120, 32, kernel_size=(1, 1), stride=(1, 1))
              (fc2): Conv2d(32, 120, kernel_size=(1, 1), stride=(1, 1))
              (activation): ReLU()
              (scale_activation): Hardsigmoid()
            )
            (3): Conv2dNormActivation(
              (0): Conv2d(120, 40, kernel_size=(1, 1), stride=(1, 1), bias=False)
              (1): FrozenBatchNorm2d(40, eps=1e-05)
            )
          )
        )
        (6): InvertedResidual(
          (block): Sequential(
            (0): Conv2dNormActivation(
              (0): Conv2d(40, 120, kernel_size=(1, 1), stride=(1, 1), bias=False)
              (1): FrozenBatchNorm2d(120, eps=1e-05)
              (2): ReLU(inplace=True)
            )
            (1): Conv2dNormActivation(
              (0): Conv2d(120, 120, kernel_size=(5, 5), stride=(1, 1), padding=(2, 2), groups=120, bias=False)
              (1): FrozenBatchNorm2d(120, eps=1e-05)
              (2): ReLU(inplace=True)
            )
            (2): SqueezeExcitation(
              (avgpool): AdaptiveAvgPool2d(output_size=1)
              (fc1): Conv2d(120, 32, kernel_size=(1, 1), stride=(1, 1))
              (fc2): Conv2d(32, 120, kernel_size=(1, 1), stride=(1, 1))
              (activation): ReLU()
              (scale_activation): Hardsigmoid()
            )
            (3): Conv2dNormActivation(
              (0): Conv2d(120, 40, kernel_size=(1, 1), stride=(1, 1), bias=False)
              (1): FrozenBatchNorm2d(40, eps=1e-05)
            )
          )
        )
        (7): InvertedResidual(
          (block): Sequential(
            (0): Conv2dNormActivation(
              (0): Conv2d(40, 240, kernel_size=(1, 1), stride=(1, 1), bias=False)
              (1): FrozenBatchNorm2d(240, eps=1e-05)
              (2): Hardswish()
            )
            (1): Conv2dNormActivation(
              (0): Conv2d(240, 240, kernel_size=(3, 3), stride=(2, 2), padding=(1, 1), groups=240, bias=False)
              (1): FrozenBatchNorm2d(240, eps=1e-05)
              (2): Hardswish()
            )
            (2): Conv2dNormActivation(
              (0): Conv2d(240, 80, kernel_size=(1, 1), stride=(1, 1), bias=False)
              (1): FrozenBatchNorm2d(80, eps=1e-05)
            )
          )
        )
        (8): InvertedResidual(
          (block): Sequential(
            (0): Conv2dNormActivation(
              (0): Conv2d(80, 200, kernel_size=(1, 1), stride=(1, 1), bias=False)
              (1): FrozenBatchNorm2d(200, eps=1e-05)
              (2): Hardswish()
            )
            (1): Conv2dNormActivation(
              (0): Conv2d(200, 200, kernel_size=(3, 3), stride=(1, 1), padding=(1, 1), groups=200, bias=False)
              (1): FrozenBatchNorm2d(200, eps=1e-05)
              (2): Hardswish()
            )
            (2): Conv2dNormActivation(
              (0): Conv2d(200, 80, kernel_size=(1, 1), stride=(1, 1), bias=False)
              (1): FrozenBatchNorm2d(80, eps=1e-05)
            )
          )
        )
        (9): InvertedResidual(
          (block): Sequential(
            (0): Conv2dNormActivation(
              (0): Conv2d(80, 184, kernel_size=(1, 1), stride=(1, 1), bias=False)
              (1): FrozenBatchNorm2d(184, eps=1e-05)
              (2): Hardswish()
            )
            (1): Conv2dNormActivation(
              (0): Conv2d(184, 184, kernel_size=(3, 3), stride=(1, 1), padding=(1, 1), groups=184, bias=False)
              (1): FrozenBatchNorm2d(184, eps=1e-05)
              (2): Hardswish()
            )
            (2): Conv2dNormActivation(
              (0): Conv2d(184, 80, kernel_size=(1, 1), stride=(1, 1), bias=False)
              (1): FrozenBatchNorm2d(80, eps=1e-05)
            )
          )
        )
        (10): InvertedResidual(
          (block): Sequential(
            (0): Conv2dNormActivation(
              (0): Conv2d(80, 184, kernel_size=(1, 1), stride=(1, 1), bias=False)
              (1): FrozenBatchNorm2d(184, eps=1e-05)
              (2): Hardswish()
            )
            (1): Conv2dNormActivation(
              (0): Conv2d(184, 184, kernel_size=(3, 3), stride=(1, 1), padding=(1, 1), groups=184, bias=False)
              (1): FrozenBatchNorm2d(184, eps=1e-05)
              (2): Hardswish()
            )
            (2): Conv2dNormActivation(
              (0): Conv2d(184, 80, kernel_size=(1, 1), stride=(1, 1), bias=False)
              (1): FrozenBatchNorm2d(80, eps=1e-05)
            )
          )
        )
        (11): InvertedResidual(
          (block): Sequential(
            (0): Conv2dNormActivation(
              (0): Conv2d(80, 480, kernel_size=(1, 1), stride=(1, 1), bias=False)
              (1): FrozenBatchNorm2d(480, eps=1e-05)
              (2): Hardswish()
            )
            (1): Conv2dNormActivation(
              (0): Conv2d(480, 480, kernel_size=(3, 3), stride=(1, 1), padding=(1, 1), groups=480, bias=False)
              (1): FrozenBatchNorm2d(480, eps=1e-05)
              (2): Hardswish()
            )
            (2): SqueezeExcitation(
              (avgpool): AdaptiveAvgPool2d(output_size=1)
              (fc1): Conv2d(480, 120, kernel_size=(1, 1), stride=(1, 1))
              (fc2): Conv2d(120, 480, kernel_size=(1, 1), stride=(1, 1))
              (activation): ReLU()
              (scale_activation): Hardsigmoid()
            )
            (3): Conv2dNormActivation(
              (0): Conv2d(480, 112, kernel_size=(1, 1), stride=(1, 1), bias=False)
              (1): FrozenBatchNorm2d(112, eps=1e-05)
            )
          )
        )
        (12): InvertedResidual(
          (block): Sequential(
            (0): Conv2dNormActivation(
              (0): Conv2d(112, 672, kernel_size=(1, 1), stride=(1, 1), bias=False)
              (1): FrozenBatchNorm2d(672, eps=1e-05)
              (2): Hardswish()
            )
            (1): Conv2dNormActivation(
              (0): Conv2d(672, 672, kernel_size=(3, 3), stride=(1, 1), padding=(1, 1), groups=672, bias=False)
              (1): FrozenBatchNorm2d(672, eps=1e-05)
              (2): Hardswish()
            )
            (2): SqueezeExcitation(
              (avgpool): AdaptiveAvgPool2d(output_size=1)
              (fc1): Conv2d(672, 168, kernel_size=(1, 1), stride=(1, 1))
              (fc2): Conv2d(168, 672, kernel_size=(1, 1), stride=(1, 1))
              (activation): ReLU()
              (scale_activation): Hardsigmoid()
            )
            (3): Conv2dNormActivation(
              (0): Conv2d(672, 112, kernel_size=(1, 1), stride=(1, 1), bias=False)
              (1): FrozenBatchNorm2d(112, eps=1e-05)
            )
          )
        )
        (13): InvertedResidual(
          (block): Sequential(
            (0): Conv2dNormActivation(
              (0): Conv2d(112, 672, kernel_size=(1, 1), stride=(1, 1), bias=False)
              (1): FrozenBatchNorm2d(672, eps=1e-05)
              (2): Hardswish()
            )
            (1): Conv2dNormActivation(
              (0): Conv2d(672, 672, kernel_size=(5, 5), stride=(2, 2), padding=(2, 2), groups=672, bias=False)
              (1): FrozenBatchNorm2d(672, eps=1e-05)
              (2): Hardswish()
            )
            (2): SqueezeExcitation(
              (avgpool): AdaptiveAvgPool2d(output_size=1)
              (fc1): Conv2d(672, 168, kernel_size=(1, 1), stride=(1, 1))
              (fc2): Conv2d(168, 672, kernel_size=(1, 1), stride=(1, 1))
              (activation): ReLU()
              (scale_activation): Hardsigmoid()
            )
            (3): Conv2dNormActivation(
              (0): Conv2d(672, 160, kernel_size=(1, 1), stride=(1, 1), bias=False)
              (1): FrozenBatchNorm2d(160, eps=1e-05)
            )
          )
        )
        (14): InvertedResidual(
          (block): Sequential(
            (0): Conv2dNormActivation(
              (0): Conv2d(160, 960, kernel_size=(1, 1), stride=(1, 1), bias=False)
              (1): FrozenBatchNorm2d(960, eps=1e-05)
              (2): Hardswish()
            )
            (1): Conv2dNormActivation(
              (0): Conv2d(960, 960, kernel_size=(5, 5), stride=(1, 1), padding=(2, 2), groups=960, bias=False)
              (1): FrozenBatchNorm2d(960, eps=1e-05)
              (2): Hardswish()
            )
            (2): SqueezeExcitation(
              (avgpool): AdaptiveAvgPool2d(output_size=1)
              (fc1): Conv2d(960, 240, kernel_size=(1, 1), stride=(1, 1))
              (fc2): Conv2d(240, 960, kernel_size=(1, 1), stride=(1, 1))
              (activation): ReLU()
              (scale_activation): Hardsigmoid()
            )
            (3): Conv2dNormActivation(
              (0): Conv2d(960, 160, kernel_size=(1, 1), stride=(1, 1), bias=False)
              (1): FrozenBatchNorm2d(160, eps=1e-05)
            )
          )
        )
        (15): InvertedResidual(
          (block): Sequential(
            (0): Conv2dNormActivation(
              (0): Conv2d(160, 960, kernel_size=(1, 1), stride=(1, 1), bias=False)
              (1): FrozenBatchNorm2d(960, eps=1e-05)
              (2): Hardswish()
            )
            (1): Conv2dNormActivation(
              (0): Conv2d(960, 960, kernel_size=(5, 5), stride=(1, 1), padding=(2, 2), groups=960, bias=False)
              (1): FrozenBatchNorm2d(960, eps=1e-05)
              (2): Hardswish()
            )
            (2): SqueezeExcitation(
              (avgpool): AdaptiveAvgPool2d(output_size=1)
              (fc1): Conv2d(960, 240, kernel_size=(1, 1), stride=(1, 1))
              (fc2): Conv2d(240, 960, kernel_size=(1, 1), stride=(1, 1))
              (activation): ReLU()
              (scale_activation): Hardsigmoid()
            )
            (3): Conv2dNormActivation(
              (0): Conv2d(960, 160, kernel_size=(1, 1), stride=(1, 1), bias=False)
              (1): FrozenBatchNorm2d(160, eps=1e-05)
            )
          )
        )
        (16): Conv2dNormActivation(
          (0): Conv2d(160, 960, kernel_size=(1, 1), stride=(1, 1), bias=False)
          (1): FrozenBatchNorm2d(960, eps=1e-05)
          (2): Hardswish()
        )
      )
      (fpn): FeaturePyramidNetwork(
        (inner_blocks): ModuleList(
          (0): Conv2dNormActivation(
            (0): Conv2d(160, 256, kernel_size=(1, 1), stride=(1, 1))
          )
          (1): Conv2dNormActivation(
            (0): Conv2d(960, 256, kernel_size=(1, 1), stride=(1, 1))
          )
        )
        (layer_blocks): ModuleList(
          (0-1): 2 x Conv2dNormActivation(
            (0): Conv2d(256, 256, kernel_size=(3, 3), stride=(1, 1), padding=(1, 1))
          )
        )
        (extra_blocks): LastLevelMaxPool()
      )
    )
    (rpn): RegionProposalNetwork(
      (anchor_generator): AnchorGenerator()
      (head): RPNHead(
        (conv): Sequential(
          (0): Conv2dNormActivation(
            (0): Conv2d(256, 256, kernel_size=(3, 3), stride=(1, 1), padding=(1, 1))
            (1): ReLU(inplace=True)
          )
        )
        (cls_logits): Conv2d(256, 15, kernel_size=(1, 1), stride=(1, 1))
        (bbox_pred): Conv2d(256, 60, kernel_size=(1, 1), stride=(1, 1))
      )
    )
    (roi_heads): RoIHeads(
      (box_roi_pool): MultiScaleRoIAlign(featmap_names=['0', '1', '2', '3'], output_size=(7, 7), sampling_ratio=2)
      (box_head): TwoMLPHead(
        (fc6): Linear(in_features=12544, out_features=1024, bias=True)
        (fc7): Linear(in_features=1024, out_features=1024, bias=True)
      )
      (box_predictor): FastRCNNPredictor(
        (cls_score): Linear(in_features=1024, out_features=2, bias=True)
        (bbox_pred): Linear(in_features=1024, out_features=8, bias=True)
      )
    )
  )
)
Full model name: FasterRcnnMobileNetV3LargeFpn_layers-2_distort
Epoch 0: Combined loss 0.5646 ; Classification loss 0.2252 ; Localization loss 0.3159 ; Objectness loss 0.0128 ; Region Proposal loss 0.0108
creating index...
index created!
Accumulating evaluation results...
DONE (t=0.01s).
IoU metric: bbox
 Average Precision  (AP) @[ IoU=0.50:0.95 | area=   all | maxDets=100 ] = 0.282
…
